assets/checkpoint.pth.tar (torch, 144410 bytes, 8 tensors)

mlp.0.weight f4 [32, 1024]
0	0x3c848c05	0.016180048
1	0xbc643382	-0.013928296
2	0xbbc47610	-0.0059955195
3	0x3c6fefa9	0.014644542
4	0xbcf2a7a5	-0.029620955
5	0x3c96ddad	0.01841625
6	0xbbf1ef72	-0.0073832804
7	0x3c813b7a	0.015775431
8	0x3b9191c6	0.0044424264
9	0xbb6dbcc6	-0.0036275848
10	0x3c09d7ed	0.008413297
11	0x3aae18dd	0.0013282556
12	0x3c35217d	0.0110553475
13	0xbc4e9213	-0.012608069
14	0xbb33e9a0	-0.0027452484
15	0xbb259726	-0.0025267093
16	0x3b88d925	0.0041762763
17	0x3a4c95f5	0.0007804328
18	0x3cde8abf	0.027165769
19	0x3c265d93	0.010154146
20	0xbc376bea	-0.011195162
21	0xbc968b1e	-0.018376883
22	0xbba19cc1	-0.0049320166
23	0xbc5800ea	-0.013183812
24	0xbc277734	-0.010221291
25	0x3a86842b	0.0010262778
26	0x3c9405ad	0.018069113
27	0x3c8c4de0	0.017126977
28	0xbcfca076	-0.030838232
29	0x3c9fbc99	0.01949911
30	0x3c0d3d32	0.008620547
31	0x3cef5fa7	0.029220415
32	0x3ca9d946	0.020733487
33	0xbcec1f3e	-0.028823491
34	0xbcf38f0d	-0.029731298
35	0xbc7a4c69	-0.015277007
36	0x3ce29ccc	0.027662657
37	0xbba46184	-0.0050165076
38	0x3c53fe33	0.012939024
39	0xbc6f91b6	-0.014622143
40	0x3cf40d3a	0.029791463
41	0xbc5a9ff6	-0.013343802
42	0x3cb8bb57	0.022550268
43	0x3998a720	0.00029116217
44	0xbc86c473	-0.016451096
45	0x3c79fac7	0.015257544
46	0xbc869cc8	-0.016432181
47	0x3c159acc	0.009131145
48	0xbc1e4543	-0.009660068
49	0xbb5a5583	-0.003331513
50	0xbcf8912e	-0.030342665
51	0xbc7520c8	-0.014961429
52	0x3c8a531e	0.016885336
53	0xbbefd8c7	-0.007319543
54	0x3cfe3fb1	0.03103623
55	0x3cc9282d	0.02455529
56	0xbac1a034	-0.0014772476
57	0xbca6a840	-0.0203439
58	0x3c9c787d	0.019100422
59	0x3c11f83a	0.0089092795
60	0xbcae572d	-0.021281803
61	0x3ca8cb15	0.02060465
62	0x3c9c27a8	0.019061878
63	0x3cdd22a9	0.026994066
64	0xbc8bf6d3	-0.017085468
65	0xbb9aa9e4	-0.0047199596
66	0xb8912c1d	-6.9223555e-05
67	0x3b81aaa7	0.003957111
68	0xbcc0361f	-0.023463307
69	0xbcb84df2	-0.022498105
70	0x3c8ab39c	0.016931348
71	0xbc05e0e9	-0.008171299
72	0x3c84208e	0.016128805
73	0x3af0589a	0.0018336952
74	0x3c26c558	0.010178886
75	0x3be28f75	0.006914074
76	0x3c4215ec	0.011846047
77	0x3c87bfc1	0.016570928
78	0xbced7108	-0.028984562
79	0x3c7dee4a	0.015498707
80	0xbcb333ba	-0.021875251
81	0xbcbd7fc8	-0.02313222
82	0x3b175e8d	0.0023097128
83	0xbbafad4d	-0.0053612352
84	0x3c9af259	0.018914388
85	0xbc9cee69	-0.019156652
86	0xbcdfcaed	-0.027318442
87	0x3cbdd0e1	0.02317089
88	0xbb9283cc	-0.004471278
89	0x3c8f366f	0.01748201
90	0x3c212839	0.00983625
91	0xbcc45481	-0.023966076
92	0x3bd1526b	0.006387999
93	0x3bf2580e	0.007395751
94	0xbca8b947	-0.02059616
95	0xbc6808d9	-0.014162266
96	0x3c2e1531	0.01062517
97	0x3bb045e0	0.0053794235
98	0xbc4fffbd	-0.01269525
99	0xbc2368a6	-0.009973681
100	0x3ce7a154	0.02827517
101	0xbbb26a5e	-0.005444809
102	0x3c96dc82	0.018415693
103	0x3c6305fd	0.013856408
104	0xbca6ace6	-0.020346116
105	0xbcd89b66	-0.026441287
106	0x3cf6a5de	0.030108389
107	0x3ad020ea	0.001587895
108	0x3cb17fae	0.021667328
109	0x3bd64779	0.006539282
110	0x3c20fb7a	0.009825582
111	0x3cbfbad2	0.023404513
112	0x3cf18b92	0.029485498
113	0xbca9e255	-0.020737806
114	0x3b83047a	0.0039983364
115	0x3cc19823	0.023632115
116	0x3cbb929c	0.022897057
117	0x3c97f96a	0.018551547
118	0xbcb4da22	-0.02207667
119	0xbcb64467	-0.022249414
120	0xbc9d0c0d	-0.019170785
121	0x3b84461e	0.004036679
122	0x3d029223	0.031877648
123	0xbca37e53	-0.019957697
124	0x3c898f45	0.016791949
125	0xbc9033ce	-0.017602827
126	0xbcf2539c	-0.029580884
127	0xbbda98b1	-0.0066710343
128	0x3c955cdc	0.018232755
129	0x3cef6bcd	0.029226208
130	0xbca36b83	-0.019948727
131	0x3bd8ecfb	0.006620047
132	0x3cde5eca	0.027144808
133	0x3cabf0ed	0.020988906
134	0x3c9cf8a0	0.019161522
135	0x3cbb47c6	0.022861373
136	0x3ca3991a	0.019970465
137	0x3c05caa5	0.00816599
138	0xbcab0bd4	-0.020879664
139	0xbcd02cd1	-0.025411995
140	0xbc6a95df	-0.014317959
141	0xbb72f924	-0.003707477
142	0xbc9ae68c	-0.018908761
143	0x3c3e28f2	0.011606442
144	0x3c250f85	0.010074501
145	0xbc00b74e	-0.007856203
146	0x3c4721bc	0.012154039
147	0x3c352d3a	0.011058146
148	0x3c9d325d	0.019189054
149	0x3caa2566	0.020769786
150	0xbc3629d3	-0.01111837
151	0x3cfa15bb	0.03052794
152	0xbb6d1fcc	-0.0036182282
153	0xb9df43ec	-0.0004258448
154	0xbcf49f37	-0.029861076
155	0xbca65433	-0.020303821
156	0xbc97b49b	-0.018518737
157	0xbc609b4a	-0.013708899
158	0x3cb4afee	0.022056546
159	0xbc1f73f0	-0.0097322315
160	0xbcbaea5f	-0.022816835
161	0x3c3ebc94	0.01164164
162	0x3c25cad0	0.010119155
163	0x3cabc0d4	0.020965971
164	0xbc8624fc	-0.016375057
165	0x3bf95010	0.007608421
166	0xbc436c69	-0.011927702
167	0xbbde63fc	-0.0067868214
168	0xbcc8f9fe	-0.024533268
169	0xbc6cf89f	-0.014463573
170	0xbc26c6f1	-0.010179267
171	0x3c667a9d	0.014067319
172	0x3bcf38a5	0.006323891
173	0x3bee0836	0.0072641624
174	0x3cfe2991	0.03102568
175	0x3cf6c37d	0.030122513
176	0x3caf10d0	0.021370322
177	0x3a687123	0.00088669563
178	0xbca9dc48	-0.020734921
179	0x3cc996a9	0.024607973
180	0xbc09e5ab	-0.0084165735
181	0xbb02accb	-0.0019939418
182	0xbcdd5af3	-0.027020907
183	0xbbc157ff	-0.0059003825
184	0xbca6b517	-0.020350022
185	0x3ced5b5c	0.028974228
186	0xbcd9a0fd	-0.026566023
187	0xbcc6999f	-0.024243174
188	0xbaf57919	-0.0018728107
189	0xbc8a6694	-0.016894616
190	0x3c2f6bef	0.010706886
191	0xbc415506	-0.011800056
192	0xbc6b6630	-0.014367625
193	0x3ae8249a	0.0017711103
194	0x3cb5473e	0.022128697
195	0xbcb2b21e	-0.021813449
196	0x3c71d7bc	0.014760908
197	0x3ca4897b	0.020085087
198	0x3cfd895e	0.03094929
199	0xbcb36e9e	-0.021903332
200	0x3c01f0fb	0.007930989
201	0xbcbfc7e9	-0.023410754
202	0x3cdcd41d	0.026956612
203	0xbc45f892	-0.01208319
204	0x3c95c30f	0.018281488
205	0x3aac0dc4	0.0013126661
206	0xbb58cfd3	-0.0033082857
207	0xba061f9d	-0.0005116405
208	0x3ba451b2	0.0050146217
209	0x3c6b931a	0.014378333
210	0x3b98b813	0.004660615
211	0x3c23ffbb	0.010009701
212	0xbce51402	-0.027963642
213	0x3cb641be	0.022248145
214	0x3ce457d6	0.027873915
215	0x3cd15ce5	0.02555699
216	0x3cbd2b55	0.023091951
217	0xbcbecaec	-0.02329012
218	0xbc375b8a	-0.011191258
219	0x3ce1c860	0.027561367
220	0xbcc539d3	-0.024075424
221	0x3cebc0b7	0.028778417
222	0xbccc4029	-0.024932938
223	0xbcb7ffd0	-0.022460848
224	0x3c834d7d	0.01602816
225	0xbcb5b829	-0.022182541
226	0xbbdd3ffe	-0.006752013
227	0x3cb18707	0.021670831
228	0x3cca92d2	0.024728213
229	0x3cf5296d	0.02992698
230	0xbbd37f63	-0.0064543947
231	0xbccafdb7	-0.024779184
232	0x3cf6db53	0.030133879
233	0xbbde16b3	-0.0067776083
234	0xbc4fa682	-0.012673976
235	0x3bfdebe2	0.0077490667
236	0xbcae77b1	-0.021297308
237	0x3ca9458b	0.020663043
238	0x3ca8ba5a	0.020596672
239	0xbccb4306	-0.024812233
240	0xbcd281dd	-0.02569669
241	0xbb582767	-0.003298247
242	0x3c573e38	0.013137393
243	0xba3e4ca9	-0.0007259348
244	0xbc80b4be	-0.015711185
245	0x39083787	0.00012990656
246	0xbcf2424c	-0.029572628
247	0xbcb48235	-0.022034744
248	0xbcaaff1b	-0.020873597
249	0x3cd60bb1	0.026128622
250	0x3ce65b30	0.028119653
251	0xbc389d67	-0.011267996
252	0x3a9d62d7	0.0012007606
253	0x3c62fc1e	0.013854055
254	0x3b3bdd81	0.0028665962
255	0xbc8006a0	-0.015628159

mlp.0.bias f4 [32]
0	0x3c0c191a	0.008550907
1	0x3c6cbca0	0.014449269
2	0xbc0a1899	-0.008428716
3	0x3bf621c2	0.0075113485
4	0x3c2cdd38	0.01055079
5	0x3bc04576	0.0058676554
6	0xbcf45e97	-0.02983026
7	0x3c37f1f2	0.011227118
8	0xbcd2fec4	-0.025756247
9	0xbc825b33	-0.015912628
10	0xbc67a0cc	-0.014137458
11	0x3ce8c8dc	0.02841609
12	0xbcb273dd	-0.021783764
13	0xbb688654	-0.0035480456
14	0xbce657ff	-0.028118132
15	0x3cce5220	0.025185645
16	0xbb6275d7	-0.0034555101
17	0x3cef9b8c	0.029248975
18	0xbc560225	-0.013062035
19	0xbb9d05bf	-0.0047919448
20	0xbcb125bd	-0.02162444
21	0x3b85d53d	0.004084258
22	0xbc5b780b	-0.01339532
23	0x3ac8bc4e	0.0015314908
24	0x3c8b85e5	0.01703162
25	0xbcafc11a	-0.021454383
26	0x3ca3b22b	0.019982418
27	0x3c637745	0.013883417
28	0x3bb4823d	0.0055086897
29	0x3cdf87bb	0.027286401
30	0x3cc156b5	0.023600915
31	0xbaa59017	-0.0012631443

gated_attention.attention.0.weight f4 [32, 32]
0	0x3e02232e	0.12708732
1	0x3dc47dd7	0.095943145
2	0x3e057a06	0.1303483
3	0x3d8256cb	0.06364211
4	0x3d488f00	0.0489645
5	0xbac6e219	-0.0015173584
6	0xbc81fb60	-0.015866935
7	0x3df185f2	0.11793126
8	0x3c8eddce	0.01743975
9	0x3d8473d2	0.064674035
10	0x3dbee0a1	0.09320188
11	0xbdba66ba	-0.09101625
12	0xbe247a41	-0.16062261
13	0x3e23832f	0.15968011
14	0x3d9143d3	0.070930146
15	0xbe07475a	-0.13210812
16	0x3e2c2c2b	0.16813724
17	0xbe1bfac6	-0.15232381
18	0x3df742ed	0.12073312
19	0x3c9bec57	0.019033594
20	0x3dc82c96	0.09774129
21	0x3e1b9b37	0.15195929
22	0x3c1b4295	0.009476324
23	0x3e1e447b	0.1545581
24	0xbd835a1f	-0.064136736
25	0xbd2b89cb	-0.041879456
26	0xbdb704d4	-0.08936468
27	0xbdf04a2f	-0.117328994
28	0xbce81459	-0.028330015
29	0x3d92c5ae	0.07166611
30	0xbdc4867b	-0.095959626
31	0x3d5ec63a	0.054388262
32	0x3dbe4d95	0.09292141
33	0x3a54ea75	0.0008122095
34	0x3e060376	0.13087258
35	0x3d1d828d	0.03845458
36	0x3d448d26	0.047986172
37	0x3dbec809	0.093154974
38	0xbe2f4476	-0.1711596
39	0xbe2c53c3	-0.16828828
40	0xbda2cc43	-0.07949116
41	0x3e0488c1	0.12942792
42	0xbdc6cc30	-0.097069144
43	0xbc3e5f9f	-0.0116194775
44	0x3dd4d216	0.10391633
45	0xbe18a348	-0.14906037
46	0xbe230a51	-0.15921904
47	0xbde2407c	-0.11047456
48	0x3d5d21a7	0.05398717
49	0xbd592f3f	-0.053023573
50	0xbe26e5ac	-0.1629855
51	0x3e15c564	0.1462608
52	0x3c80175a	0.015636135
53	0xbc8caf97	-0.017173572
54	0xbdca0fc3	-0.098662876
55	0xbe1cf039	-0.15326013
56	0x3e1530b2	0.14569357
57	0xbd71a3de	-0.058994167
58	0xbe219c70	-0.15782332
59	0x3db5db3d	0.08879707
60	0x3dff1628	0.12455398
61	0xbd288de7	-0.041150954
62	0xbd2da109	-0.042389903
63	0x3d5a5b31	0.053309623
64	0x3ce04a3f	0.027379153
65	0xbe169614	-0.14705688
66	0x3d4cd137	0.05000421
67	0xbd8a825d	-0.06763146
68	0x3e036d29	0.1283461
69	0x3e2cf5df	0.16890667
70	0x3db944c5	0.0904632
71	0x3d6fdf92	0.058562823
72	0x3e17a823	0.14810233
73	0x3dc479d4	0.09593549
74	0xbdb94cb9	-0.09047837
75	0x3d1fc6a3	0.039007794
76	0xbd8da84f	-0.06916868
77	0xbe26f8c6	-0.16305837
78	0xbdb87d43	-0.09008267
79	0xbdda3e38	-0.106563985
80	0xbd85ae19	-0.06527347
81	0x3e088715	0.1333278
82	0xbdad6bcd	-0.08467827
83	0x3dc6c7a7	0.097060494
84	0xbc492851	-0.012277679
85	0x3c99b2e2	0.018762056
86	0x3d619cbc	0.055081114
87	0xbc98c1f8	-0.018647179
88	0x3d5e2924	0.054238454
89	0xbdd8d78f	-0.105879895
90	0x3d77d14b	0.06050233
91	0xbd8d06ad	-0.06886039
92	0xbd40eb45	-0.04709937
93	0x3caa817b	0.020813694
94	0x3da838f4	0.08213988
95	0x3dbeccac	0.09316382
96	0xbe07b15d	-0.13251252
97	0xbe0068cd	-0.12539978
98	0x3daa6fc5	0.083220996
99	0x3e224903	0.15848164
100	0xbd30f361	-0.043200854
101	0xbd6f9503	-0.058491718
102	0xbdf171a1	-0.11789251
103	0x3df87154	0.121309906
104	0x3dff7768	0.12473947
105	0x3e235172	0.15949038
106	0x3e06d7fa	0.13168326
107	0xbdf186fd	-0.11793325
108	0x3e086d50	0.1332295
109	0xbbaf2c36	-0.0053458465
110	0x3e291f3d	0.16515823
111	0x3d2d50ec	0.0423135
112	0x3e11cc48	0.14238083
113	0xbcf2b29f	-0.029626189
114	0xbe204da2	-0.15654615
115	0x3d594fd8	0.05305466
116	0x3dd86f72	0.105681315
117	0x3e19b4a8	0.15010321
118	0x3d27b77b	0.040946465
119	0x3dd54b3c	0.104147404
120	0x3e1121b2	0.1417301
121	0xbd4d90a3	-0.050186764
122	0xbdbc9fbe	-0.09210156
123	0xbe17efcf	-0.14837573
124	0x3e05211a	0.13000908
125	0x3e2c88b0	0.16849017
126	0x3e1b9f5d	0.15197511
127	0x3dbb8cd4	0.0915772
128	0x3bef693f	0.0073062475
129	0xbe020b3f	-0.12699603
130	0x3d226902	0.039650925
131	0x3d2e22fd	0.042513836
132	0xbd5d526a	-0.054033674
133	0xbd73c522	-0.059514172
134	0x3dbbd17c	0.09170815
135	0xbd8fa9cd	-0.07014809
136	0xbdccef0b	-0.10006531
137	0x3def35e7	0.11680203
138	0xbd828c8a	-0.06374462
139	0xbd27a95c	-0.040932998
140	0x3e1052f7	0.14094149
141	0xbdf8d7c6	-0.121505305
142	0x3dbc546c	0.0919579
143	0x3beed3c2	0.007288427
144	0x3d06bdff	0.03289604
145	0x3d621fd2	0.055206127
146	0xbc5ab760	-0.013349384
147	0xbd37afde	-0.044845454
148	0xbd686690	-0.056738436
149	0xbe0abd86	-0.1354886
150	0x3dce9d53	0.10088601
151	0xbdfd528b	-0.123692594
152	0xbda9282b	-0.082596146
153	0x3c3a7fac	0.011382978
154	0xbc888a1d	-0.01666742
155	0x3e268bfc	0.16264337
156	0xbd0ebf96	-0.03485068
157	0xbb7ea464	-0.0038855309
158	0x3d25802f	0.04040545
159	0x3e307fab	0.17236201
160	0xbdf8201f	-0.121155016
161	0xbd5ab29b	-0.053392988
162	0xbd38da70	-0.045130193
163	0x3e22ddf9	0.15904988
164	0x3e1b44a4	0.15162903
165	0x3d9be26a	0.076115444
166	0xbddc7d75	-0.107661165
167	0x3e142d99	0.14470519
168	0xbd06dfdc	-0.032928333
169	0xbdd4ba84	-0.103871375
170	0xbdf03988	-0.11729723
171	0xbdc48086	-0.095948264
172	0xbe0b8e7d	-0.13628574
173	0x3da22914	0.07917991
174	0x3ddb9014	0.1072084
175	0xbd807748	-0.06272751
176	0x3c37c17f	0.011215567
177	0x3cc3acd4	0.023886122
178	0x3c790814	0.01519968
179	0x3d94bcb2	0.07262553
180	0xbcc4d472	-0.024027083
181	0xbe21ca82	-0.15799907
182	0xbe22b734	-0.15890199
183	0x3df8c9ad	0.121478416
184	0xbd602142	-0.054719217
185	0x3dbc81b6	0.09204428
186	0x3ddcef9c	0.10787889
187	0xbd8c05e4	-0.06837061
188	0xbd46ca91	-0.048533026
189	0xbc170cd1	-0.009219364
190	0xbe220d13	-0.158253
191	0x3daef54e	0.08542882
192	0x3e3417dc	0.17587227
193	0xbe06ea13	-0.1317523
194	0x3de08010	0.10961926
195	0xbe255a83	-0.16147809
196	0x3de6d5a1	0.11271215
197	0x3d5e87b3	0.05432863
198	0xbc8988f7	-0.016788943
199	0x3e1b17ad	0.1514575
200	0xbde45ce1	-0.11150528
201	0x3dbca53f	0.09211206
202	0x3de82508	0.11335188
203	0x3e30923a	0.17243281
204	0xbcafa65d	-0.021441633
205	0xbe13f0a5	-0.14447267
206	0xbb4fc59b	-0.0031703475
207	0x3e3108f4	0.17288572
208	0x3d4b039f	0.049564
209	0x3cd8fa17	0.02648644
210	0x3d69a490	0.057041705
211	0xbe2d5b6c	-0.16929406
212	0xbd249ad0	-0.040186703
213	0x3e30d056	0.17266974
214	0x3d726adc	0.05918394
215	0xbdbd72f5	-0.09250442
216	0x3dc6026d	0.096684314
217	0xbd9acda1	-0.07558752
218	0xbe01a3e1	-0.12660171
219	0xbd45743a	-0.048206545
220	0x3d3c09cf	0.04590779
221	0xbdba9fb0	-0.09112489
222	0x3d983646	0.07432227
223	0xbd7a3604	-0.06108667
224	0x3d9de5f1	0.077098735
225	0x3c277c43	0.010222497
226	0x3d303107	0.043015506
227	0xbd0cb010	-0.034347594
228	0x3d347e73	0.044065904
229	0xbdbf5136	-0.09341662
230	0x3d8c6ead	0.06857047
231	0xbdfae00a	-0.12249763
232	0x3db927ad	0.09040771
233	0x3dc7a9a1	0.09749151
234	0x3d096e44	0.033552423
235	0xb9c11dc4	-0.00036834006
236	0xbdf3af06	-0.118986174
237	0xbd765cc3	-0.06014706
238	0xbe0346a3	-0.12819915
239	0x3e1262e0	0.1429553
240	0xbd6b6241	-0.05746675
241	0x3e116c4c	0.14201468
242	0xbd18b220	-0.03727925
243	0xbac7e239	-0.0015249915
244	0xbe070f99	-0.13189544
245	0xbca37bc0	-0.01995647
246	0xbc506b27	-0.01272086
247	0x3d2acc1d	0.041698564
248	0xbccd5e2c	-0.025069319
249	0x3dd24869	0.102677174
250	0xbd13bd03	-0.036068927
251	0xbd87e8ce	-0.06636201
252	0x3e1591c4	0.14606386
253	0x3d99cca5	0.07509736
254	0xbe058ddc	-0.13042396
255	0xbda0e57d	-0.078562714

gated_attention.attention.0.bias f4 [32]
0	0x3dd1180c	0.10209665
1	0x3e06285c	0.13101333
2	0x39d66167	0.0004088983
3	0xbd2086d0	-0.039191067
4	0x3db2b6d4	0.08726278
5	0x3e07620c	0.13220996
6	0xbe08ffac	-0.13378781
7	0xbe02c507	-0.12770472
8	0xbdb138d0	-0.08653414
9	0xbbbda48c	-0.005787438
10	0x3b6f3c5c	0.0036504483
11	0xbc88240b	-0.01661875
12	0xbd0ecd55	-0.03486379
13	0xbdd141e2	-0.10217644
14	0x3cb105ac	0.02160915
15	0x3a2f3dab	0.00066849095
16	0xbdb5ff1d	-0.088865496
17	0xbb93b4f5	-0.0045076557
18	0x3b2bc3d9	0.0026209264
19	0x3e2bbcbe	0.16771218
20	0x3e107485	0.14106949
21	0xbd57d084	-0.05268909
22	0x3dd355a2	0.103190675
23	0xbcf8d311	-0.030374082
24	0x3d4246b6	0.047430716
25	0x3dbcdedb	0.09222194
26	0x3e32b247	0.1745082
27	0x3e199924	0.14999825
28	0xbbf5f4dd	-0.0075059966
29	0x3d417187	0.04722741
30	0x3d942648	0.07233864
31	0xbe33b9a3	-0.17551284

gated_attention.gate.0.weight f4 [32, 32]
0	0xbdba3a98	-0.09093207
1	0x3d9ccc5b	0.07656165
2	0x3e1c002c	0.1523444
3	0x3daef5d9	0.085429855
4	0xbe0d8f77	-0.13824259
5	0x3e04ff09	0.12987913
6	0xbbf50a30	-0.007478021
7	0xbd851fec	-0.06500229
8	0x3da1dc0f	0.07903301
9	0xbe0827bb	-0.13296406
10	0x3db357ee	0.08757006
11	0x3cbc8af2	0.023015473
12	0x3cc299c0	0.023754954
13	0xbe172e7c	-0.14763826
14	0x3ddba9c0	0.107257366
15	0xbdd43101	-0.10360909
16	0x3cbbaf77	0.022910817
17	0xbdd74208	-0.10510641
18	0xbdc4756b	-0.09592708
19	0xbd074f92	-0.03303487
20	0x3d0fcaf1	0.03510565
21	0xbe1148f9	-0.14187993
22	0xbdf9fcf7	-0.12206452
23	0xbdcf0b34	-0.10109559
24	0x3e329b6a	0.17442098
25	0xbda699ab	-0.081347786
26	0xbd511153	-0.051041912
27	0xbdd03392	-0.10166086
28	0x3d84a0b8	0.06475967
29	0xbb02379c	-0.0019869572
30	0xbbd6e9f3	-0.0065586506
31	0x3da9661f	0.08271431
32	0x3e24f0e4	0.16107517
33	0xbd902690	-0.07038605
34	0xbd03c85a	-0.032173492
35	0x3d890466	0.06690292
36	0xbe0d6839	-0.13809289
37	0xbe0047e2	-0.12527421
38	0xbde666e8	-0.112500966
39	0x3d7d15c1	0.061788324
40	0x3dd11ca8	0.10210544
41	0x3e043022	0.12908986
42	0xbe0186aa	-0.12649027
43	0x3d87fe7f	0.06640338
44	0x3d082a7b	0.033243638
45	0x3d556f99	0.05210838
46	0xbd43f0bd	-0.047837008
47	0xbe121758	-0.14266717
48	0x3de1353e	0.10996483
49	0x3e13b0f8	0.14422977
50	0xbde01718	-0.10941905
51	0xbc1f6cdf	-0.009730547
52	0xbdf4f49c	-0.11960718
53	0x3dbfc0ef	0.09362971
54	0x3caf2108	0.021378055
55	0x3e043aaf	0.12913011
56	0xbda6c381	-0.08142758
57	0xbc88510c	-0.016640209
58	0xbe084c40	-0.13310337
59	0x3ca4abbd	0.020101422
60	0x3e154469	0.14576878
61	0x3df3823d	0.11890075
62	0xbd735972	-0.059411474
63	0xbd570ce8	-0.052502543
64	0xbe026a8d	-0.12735958
65	0x3ce18dc7	0.027533425
66	0x3e1461ef	0.14490484
67	0xbe15bbf2	-0.14622477
68	0x3c976783	0.018481975
69	0xbe0d529a	-0.13801041
70	0xbdc08df3	-0.09402075
71	0x3e0bedf6	0.13664994
72	0xbdd17a72	-0.10228433
73	0xbdaa242d	-0.08307681
74	0x3e00f075	0.12591727
75	0x3e0abb71	0.13548066
76	0x3d688a27	0.056772377
77	0xbce793fe	-0.02826881
78	0x3e1e8a2e	0.15482399
79	0xbd8d5ade	-0.06902097
80	0x3e23bd91	0.15990283
81	0x3dadd83c	0.08488509
82	0x3e1ad33f	0.15119646
83	0xbe1aacd9	-0.15104999
84	0xbce5da64	-0.028058238
85	0xbb112dc9	-0.0022152534
86	0x3db20382	0.08692075
87	0x3e346caf	0.17619585
88	0x3e2126a2	0.15737393
89	0xbc806d8d	-0.015677238
90	0xbdf02f77	-0.11727803
91	0x3d2a80e3	0.041626822
92	0x3e19a70c	0.1500513
93	0xbe02f0dc	-0.12787193
94	0x3e0fe855	0.14053471
95	0x3d330494	0.043705538
96	0x3cfd371a	0.030910064
97	0x3d06ef27	0.032942917
98	0xbe3290b4	-0.17438012
99	0xbc947828	-0.018123701
100	0x3d966187	0.073428206
101	0x3d9656d9	0.073407836
102	0xbcf01d11	-0.029310735
103	0x3d177903	0.03698064
104	0xbd237c66	-0.039913557
105	0xbe1f032c	-0.15528554
106	0x3df9051c	0.12159178
107	0xbd171cce	-0.036892705
108	0x3e024e6e	0.12725231
109	0x3cd480a6	0.02594025
110	0x3d2160b3	0.03939886
111	0x3e0528ce	0.13003847
112	0xbe011a21	-0.12607624
113	0xbda434e4	-0.080179006
114	0xbbe5ae18	-0.007009279
115	0x3e26df8b	0.16296212
116	0x3d954082	0.072876945
117	0x3e28e455	0.16493352
118	0x3deba645	0.11506323
119	0x3e154377	0.14576517
120	0x3d671c0c	0.056423232
121	0xbdb32b2d	-0.087484695
122	0x3b2ba694	0.0026191818
123	0xbde82204	-0.11334613
124	0x3de4665b	0.11152335
125	0x3a9932ee	0.0011688152
126	0x3e1aefea	0.15130582
127	0xbdbb158a	-0.091349676
128	0xbca03f1b	-0.019561341
129	0xbd9dc28e	-0.07703124
130	0x3dc9a82b	0.098465286
131	0x3d2483c4	0.040164724
132	0x3de9f359	0.11423368
133	0x3dac424f	0.08411085
134	0xbe1ae69d	-0.15127034
135	0xbe014b21	-0.12626316
136	0xbe2c7282	-0.16840556
137	0x3da3a125	0.0798972
138	0x3dab11f6	0.08353035
139	0x3e1606a1	0.14650966
140	0x3d31be14	0.043394163
141	0xbcd52fcb	-0.026023766
142	0x3de40b3b	0.111349545
143	0x3e14c64c	0.14528769
144	0xbc9271be	-0.017876502
145	0x3caf3c1d	0.021390969
146	0xbe198722	-0.14992955
147	0x3c5885f3	0.01321553
148	0x3d6c987d	0.05776261
149	0xbe1e3a22	-0.15451863
150	0xbd8cf9ad	-0.068835594
151	0x3e20c5fc	0.15700525
152	0xbd052c6f	-0.03251308
153	0x3dbf6076	0.0934457
154	0xbdf9acd2	-0.12191166
155	0xbe0c3927	-0.13693677
156	0x39f8b349	0.00047435824
157	0xbda19476	-0.07889645
158	0x3c87852b	0.016542992
159	0xbdc6f2e3	-0.09714296
160	0x3c212891	0.009836332
161	0x3e2ee146	0.17078122
162	0x3c8e15d3	0.017344391
163	0x3e338546	0.17531309
164	0xbe0906f1	-0.13381554
165	0x3c8335ca	0.01601686
166	0xbd2c85e5	-0.04211988
167	0x3e1e7ac1	0.15476514
168	0x3e326614	0.17421752
169	0x3e00d7d2	0.12582329
170	0xbbfa7c7f	-0.0076442356
171	0xbe2d6d3e	-0.16936204
172	0xbe098733	-0.1343048
173	0x3e072fec	0.13201874
174	0x3dffd684	0.124920875
175	0x3dfca1cd	0.123355485
176	0x3d4f4014	0.05059822
177	0xbd79ddc1	-0.061002497
178	0x3d89d053	0.06729188
179	0x3d9624ed	0.07331262
180	0x3d85cf18	0.065336406
181	0xbe2373dd	-0.15962167
182	0x3e271c07	0.16319285
183	0xbd8df9a4	-0.06932381
184	0x3e2f8c31	0.17143323
185	0x3deb62f3	0.114934824
186	0xbd5ff3c0	-0.054675817
187	0xbe33c3cc	-0.1755516
188	0xbdbb2402	-0.09137727
189	0xbd2498dd	-0.040184844
190	0x3e05c6d1	0.13064124
191	0x3cbe8327	0.023255898
192	0x3de59e3e	0.11211823
193	0xbcf52d20	-0.029928744
194	0xbc68101c	-0.014163997
195	0xbdbaa301	-0.09113122
196	0xbd5e67a5	-0.054298062
197	0x3e2c046b	0.1679856
198	0x3c342c16	0.010996839
199	0x3e0be26f	0.13660596
200	0x3c8e3476	0.017359
201	0xbe12b1de	-0.14325663
202	0xbe07197c	-0.13193315
203	0xbcef41a2	-0.0292061
204	0xbc2ff9e0	-0.010740727
205	0x3dec3e04	0.11535266
206	0x3d045a6b	0.03231279
207	0x3d822f47	0.06356674
208	0xbcdf9165	-0.02729101
209	0xbe258512	-0.16164044
210	0x3dd1ae09	0.10238273
211	0xbe222c7c	-0.15837282
212	0xbde4bc15	-0.11168686
213	0xbde450f4	-0.11148253
214	0x3c86b9eb	0.016446074
215	0xbd8fe3c5	-0.070258655
216	0x3e21a06b	0.15783851
217	0xbe10595e	-0.14096591
218	0xbe05d979	-0.1307124
219	0x3e07da5f	0.13266896
220	0x3da0c3b8	0.078498304
221	0xbe1d7e51	-0.15380217
222	0x3de7fe7e	0.113278374
223	0x3dd2fdfd	0.10302351
224	0xbcd68556	-0.026186626
225	0xbe30bb4e	-0.17258951
226	0xbe21d395	-0.15803368
227	0xbc53d55d	-0.012929288
228	0xbdeb21e0	-0.114810705
229	0x3df69683	0.120404266
230	0xbd00716f	-0.03135818
231	0x3e036079	0.1282977
232	0x3cdfbc5b	0.027311495
233	0xbd32759c	-0.043569192
234	0xbdf69a2b	-0.12041124
235	0x3e307785	0.17233093
236	0xbe2ce41f	-0.16883896
237	0xbe313247	-0.17304336
238	0x3e21df20	0.15807772
239	0x3d87db38	0.066336095
240	0x3de3b608	0.11118704
241	0xbc8fd544	-0.017557748
242	0x3cff14b0	0.031137794
243	0xbc038403	-0.0080270795
244	0x3e23ff4b	0.16015355
245	0xbd455e7b	-0.048185807
246	0x3dbc69f8	0.091998994
247	0xbd9e2c9f	-0.077233545
248	0x3b5f099a	0.0034032823
249	0x3cc3353c	0.023829095
250	0x3dcf81b1	0.101321585
251	0xbdbec20d	-0.09314356
252	0xbd95a530	-0.07306898
253	0x3e109e3f	0.14122866
254	0x3deb96b7	0.11503356
255	0xbdb86568	-0.09003717

gated_attention.gate.0.bias f4 [32]
0	0x3c9257f1	0.0178642
1	0x3d5ccdf1	0.05390734
2	0xbd35ff78	-0.044433087
3	0x3dea57c6	0.11442523
4	0x3c60d5a6	0.013722813
5	0x3d87df20	0.066343546
6	0xbda720f3	-0.081605814
7	0xbe21e982	-0.15811732
8	0x3ca917c8	0.020641223
9	0x3de61086	0.1123362
10	0xbd9af1ad	-0.07565627
11	0xbe1a50c5	-0.15069874
12	0xbdc4101f	-0.09573387
13	0x3e020d6a	0.1270043
14	0xbbb93ae6	-0.005652773
15	0xbe25cae9	-0.16190685
16	0x3e1cb2f3	0.15302639
17	0xbc829c0e	-0.015943553
18	0x3ba16c28	0.0049262233
19	0x3ddfd374	0.10929003
20	0x3c95dd54	0.018294014
21	0x3e30aa82	0.17252544
22	0xbdfca276	-0.123356745
23	0x3db1387c	0.08653352
24	0x3de4f0a0	0.11178708
25	0xbe3158b2	-0.17318991
26	0xbcd7d7c6	-0.026348006
27	0x3ddcb231	0.10776175
28	0x3dea0a9b	0.11427804
29	0x3e0b1018	0.13580358
30	0xbe2f9997	-0.17148434
31	0x3e018a69	0.12650456

gated_attention.head.weight f4 [1, 32]
0	0x3d70d9ad	0.05880134
1	0x3d9bbe50	0.076046586
2	0x3ded24d2	0.115792885
3	0x3df4fbe3	0.11962106
4	0x3cd370fb	0.02581071
5	0x3d97f642	0.07420017
6	0xbbcb4087	-0.0062027606
7	0xbca11bd7	-0.019666595
8	0xbd0bb98e	-0.034112506
9	0xbdde15eb	-0.10844024
10	0x3e26fd8a	0.16307655
11	0x3df14335	0.11780397
12	0xbccf7643	-0.025324946
13	0xbe06bf3c	-0.13158888
14	0x3dc93bb1	0.09825838
15	0x3d3bad78	0.04581973
16	0x3b88f29a	0.004179311
17	0xbe10606d	-0.14099284
18	0x3e1d1734	0.15340883
19	0xbdd42b74	-0.103598505
20	0x3e1ad327	0.1511961
21	0xbe1c3db7	-0.15257917
22	0xbd342c4e	-0.043987565
23	0x3e0aa0d2	0.1353791
24	0x3e22dcb4	0.15904504
25	0xbd48ac23	-0.048992287
26	0x3dc28b9a	0.09499283
27	0x3de4d3ad	0.111731865
28	0xbe1224ec	-0.14271897
29	0xbbb4c87a	-0.0055170627
30	0x3e25959e	0.16170356
31	0xbc3d2065	-0.011543368

classification_head.weight f4 [1, 32]
0	0xbe30c0aa	-0.17260996
1	0x3d9541ef	0.072879665
2	0xbe2a4db8	-0.1663121
3	0xbdab1521	-0.083536394
4	0x3db9165f	0.0903747
5	0xbdd74201	-0.10510636
6	0xbdf27ccb	-0.118402086
7	0x3d85ea15	0.06538788
8	0xbc2d6e87	-0.010585434
9	0x3da9cff3	0.08291616
10	0x3d84f00a	0.06491096
11	0x3da3df7a	0.08001609
12	0x3deca234	0.11554375
13	0x3e07d133	0.13263397
14	0xbd157a30	-0.03649348
15	0xbe2b988a	-0.16757408
16	0xbdd06693	-0.101758145
17	0x3d030945	0.031991262
18	0xbd94849c	-0.07251856
19	0xbe3186a7	-0.17336522
20	0xbdae9022	-0.08523585
21	0x3e33ce4b	0.17559163
22	0xbd4e4f1f	-0.050368425
23	0xbd1af8c8	-0.037834913
24	0xbe079adc	-0.13242668
25	0x3e2d1256	0.16901526
26	0x3e0002f0	0.1250112
27	0x3e239ea0	0.1597848
28	0x3cab8e08	0.02094175
29	0xbe27b6a8	-0.16378272
30	0x3b0ecf60	0.0021791086
31	0xbc7248a2	-0.014787825
